model.pt (torch_old, 865549 bytes, 22 tensors)

conv1.weight f8 [3, 1, 2, 2]
0.18945274842670984 -0.1486458567372373 -0.25401494975106603 0.5370539609147271 0.3611818925939184 0.27314329323145253 -0.2809028625488281 0.47714359362135855
0.15896178840613073 0.6386888729621735 0.315258345158702 -0.05721942183549495
00000000: f6a4 50d7 fc3f c83f b0a8 afd2 d306 c3bf
00000010: f10e 78eb c741 d0bf cc1c cac9 8b2f e13f
00000020: f649 26a8 9a1d d73f bf40 e301 2e7b d13f
00000030: 0000 0000 50fa d1bf a760 8648 8589 de3f
00000040: f04d 4221 dc58 c43f dd21 b6a5 2370 e43f
00000050: 66da 8f56 312d d43f 497e f532 dd4b adbf

conv1.bias f8 [3]
0.2067521952301804 -0.4073052582518971 -0.22813228238445263
00000000: 04e6 711e db76 ca3f 1e91 eb12 4a11 dabf
00000010: 4d64 004a 7033 cdbf

conv2.weight f8 [8, 3, 2, 2]
0.2321494403256807 -0.09802516815583973 0.04021645160752863 -0.01596650348091856 0.06933052999155417 -0.17328810531489708 -0.00047297932297101267 -0.014407951321843073
0.2771962730411093 0.30140249976892436 0.33251382318642714 -0.12036032799194751 -0.03585163644127271 -0.10803629938470494 -0.14339884191727054 0.09498410674797911
0.2748021765293779 -0.2874241634290301 -0.04418568159375639 0.016320249261181616 -0.28500467120207457 0.1658892368526445 0.24677935664811956 0.01752456688003873
-0.25595906841655003 -0.10279193502406317 0.2115408456679773 -0.007932931184768677 0.04423221945762634 -0.17803412675857544 -0.23246866888405437 0.10606613755226135
-0.13225992023944855 0.1563176807326044 0.07909172773361206 -0.12415663886852718 -0.002152472734451294 -0.11244794726371765 -0.25043243169784546 -0.2735326588153839
0.2742113471031189 -0.04015269875526428 0.1492677628993988 0.2741142511367798 -0.22999164462089539 -0.012173384428024292 0.05972188711166382 -0.24928714334964752
0.04119684332624714 -0.25764549920177604 0.2711230621901895 -0.265555319093796 -0.23613631402839033 0.29127754664328037 0.020618357174803675 -0.2674814513910745
0.3601251735144737 -0.31220271282871587 0.1758142194862068 0.023765928893219705 0.2813246168082585 0.06665283510312466 0.08119696219522023 -0.2899278872094982
0.27391920885746485 0.15953459480228996 0.2237433309115938 -0.16674927890799474 0.011896036082608384 0.2953392619431124 -0.15919504245341337 0.028038131094799475
-0.16716124963217602 0.03715440756154622 -0.17518877008291486 -0.015487672515517087 0.11323525126442895 0.24858525018417377 -0.0983497228744146 -0.06900782203059584
-0.13537276453642658 0.2896743847502482 -0.19347764618436278 -0.048395569843746336 0.04285760662015424 0.20377368834126625 -0.12979521055668458 -0.09477114985357396
-0.08716644404030399 -0.10757587582993951 0.09003779477754358 0.20693182552206724 -0.23069351441925984 -0.22466565474531916 0.1045156555393059 0.16379999630214023
00000000: 66e3 fda6 12b7 cd3f 200b 6a6b 2d18 b9bf
00000010: b1bc d430 4097 a43f a3c8 20e9 8559 90bf
00000020: 2696 ed46 a5bf b13f 2e80 8efc 4d2e c6bf
00000030: 3ce3 4db9 46ff 3ebf 5b60 d67d ea81 8dbf
00000040: b837 d26f 95bd d13f df2b dcb5 2d4a d33f
00000050: b16e 030f e847 d53f 5814 7638 efcf bebf
00000060: 49f4 0b4c 255b a2bf 485f a354 44a8 bbbf
00000070: 62d3 28ac e45a c2bf e251 1fe0 e050 b83f
00000080: 0e0d 44de 5b96 d13f 8280 8051 2865 d2bf
00000090: 1516 cb72 819f a6bf c97c 5b63 41b6 903f
000000a0: 074a 813b 843d d2bf 4e2f 85c7 db3b c53f
000000b0: 10d8 1049 7796 cf3f f15c 81c6 f5f1 913f
000000c0: 68ad fd24 a261 d0bf 728d 387f 9250 babf
000000d0: 31c1 f43a c513 cb3f 0000 0000 243f 80bf
000000e0: 0000 0000 9ba5 a63f 0000 0080 d2c9 c6bf
000000f0: 34d0 1989 88c1 cdbf 0000 0080 2627 bb3f
00000100: 0000 00a0 e4ed c0bf cb3c 44bf 3702 c43f
00000110: 0000 0000 5b3f b43f 0488 85bf bac8 bfbf
00000120: 0000 0000 10a2 61bf 0000 0080 63c9 bcbf
00000130: 0000 00c0 1507 d0bf 0000 0020 8f81 d1bf
00000140: 0000 00c0 ad8c d13f 0000 0000 e58e a4bf
00000150: 0000 00c0 341b c33f 0000 0080 168b d13f
00000160: 0000 00c0 5d70 cdbf 0000 0000 5cee 88bf
00000170: 0000 0000 de93 ae3f 0000 0020 a4e8 cfbf
00000180: eabf 91ad c017 a53f 5020 428c 437d d0bf
00000190: 5516 538b 145a d13f 4359 b2bc dbfe d0bf
000001a0: a930 13f9 b639 cebf 9716 3994 4aa4 d23f
000001b0: 6857 0d87 fa1c 953f cab8 8085 6a1e d1bf
000001c0: dc80 ad74 4a0c d73f 9b98 5416 21fb d3bf
000001d0: 1cb9 6e91 1481 c63f 7ef8 6b7d 1856 983f
000001e0: b213 30f7 3801 d23f 351f f402 2910 b13f
000001f0: a1bb 29f9 52c9 b43f cdd7 70b2 2d8e d2bf
00000200: 0f7f f26e e487 d13f 41d3 a02d a16b c43f
00000210: bb50 7b18 9fa3 cc3f 404d c555 0a58 c5bf
00000220: 8c2a 6aef f25c 883f f94e d1a5 d6e6 d23f
00000230: 36e9 82ce 8060 c4bf 025c 5f20 07b6 9c3f
00000240: 7312 2a32 8a65 c5bf e318 c20a e705 a33f
00000250: 77f8 10eb 956c c6bf 83fb 8f37 00b8 8fbf
00000260: 6b60 ef44 fcfc bc3f 748d e737 a4d1 cf3f
00000270: 52f7 508b 722d b9bf 0f23 ca22 7faa b1bf
00000280: e5fd 390e e553 c1bf 6e70 3f6e 068a d23f
00000290: 0738 6f21 e0c3 c8bf da16 80db 4dc7 a8bf
000002a0: be04 a3a5 6ef1 a53f 3203 9b97 4115 ca3f
000002b0: be5a 4224 219d c0bf d2b4 390d ec42 b8bf
000002c0: 4433 7642 8a50 b6bf a534 87b4 178a bbbf
000002d0: e737 f987 b70c b73f b436 8ff7 bd7c ca3f
000002e0: 463e ea75 5d87 cdbf 7f31 d51b d8c1 ccbf
000002f0: 1319 76ba 89c1 ba3f 3bef 99f5 65f7 c43f

conv2.bias f8 [8]
0.04900678586964018 0.026272099953068593 -0.14400415669546998 -0.27469170093536377 0.03970763494370471 -0.02883540984907108 0.0809126293736731 -0.01481163188225217
00000000: 2732 2fdd 6a17 a93f 09f8 61c8 12e7 9a3f
00000010: 895f bf6b ba6e c2bf 0000 0080 8c94 d1bf
00000020: 072d f822 8f54 a43f 03f6 1299 0787 9dbf
00000030: 9448 fea8 b0b6 b43f eafd 4694 8f55 8ebf

conv3.weight f8 [16, 8, 5, 5]
0.03901811398623444 0.04369933739306868 -0.07369392966773537 0.04052778186135803 -0.004451667957215038 0.02284194514963383 -0.02001665270291277 -0.049192679780203405
-0.026133433375703688 0.00969548089341132 0.018658020424184175 -0.08865356349478651 -0.056663352353929684 -0.08015505151094365 -0.04534821334901303 -0.04992377171148551
-0.062376073012021756 0.06682586154684521 -0.03973098821373783 0.03380288088081262 0.018881527709973915 0.03721337194108731 -0.01688979951211627 -0.017727518966542632
-0.05035817798322281 0.009790542642516787 0.15846822538663494 -0.045118536383725635 0.02628062783956457 0.033836363805212766 0.04460668402435383 0.0872856486179347
-0.00333823240180364 0.009756111548500652 -0.004289902355033655 0.05093500933684244 -0.01046163362286443 0.08001828134760079 -0.09478892130318947 -0.013627112707214952
0.016339130697687883 -0.03131474262411426 -0.03634830631582986 -0.02753206897257362 0.05974328106166458 -0.015461163915634365 -0.04908197470943376 -0.08832744315602281
0.05032934495762527 -0.050911270208965034 0.04016478359699249 0.048331961035728455 -0.028289396315813065 -0.059539295732975006 -0.025159377604722977 0.0036446598488277717
0.009583309292793274 -0.024838034063577652 0.03538362681865692 0.02982783317565918 -0.02332932052485411 -0.06814134865999222 -0.0623115636408329 -0.007691428065299988
-0.056109849363565445 -0.009078919887542725 -0.009973075240850449 0.048054181039333344 0.020136162638664246 -0.04247141629457474 0.049774497747421265 -0.032058630138635635
-0.052612755447626114 -0.002558372914791107 -0.04108744114637375 0.06303495913743973 0.02347065508365631 0.04100058972835541 0.01710839569568634 0.034093037247657776
0.030695810914039612 0.06406006962060928 0.06851319223642349 0.008987873792648315 0.003362201154232025 -0.033851735293865204 0.03169071674346924 0.02773343026638031
0.029755644500255585 0.020087316632270813 0.055931456387043 -0.018850170075893402 0.05899595469236374 0.06766019016504288 -0.06735055148601532 0.05367528647184372
0.0313689261674881 0.04114771634340286 -0.006073720753192902 0.06452818959951401 -0.0375297110359701 0.09228750374640178 -0.023039204071244535 -0.024972149876928997
0.054742468975986384 -0.053909320271663286 0.04230477826987346 0.01874935807282164 -0.02565849368659369 -0.040220605135144354 -0.03711290000600284 0.07660392370170736
-0.03526013504539656 -0.03405943981181757 -0.02096769181996227 0.009590056213536764 0.02204908838257724 -0.032095713549769186 0.03515187634574543 0.040971684876765384
0.008229404307139221 0.03236902133863012 -0.0364096826369409 -0.008934520908465388 -0.005300793249538249 -0.05765880112011254 0.022179984961098194 -0.05709313427521114
-0.08646537341007943 0.048606707868758696 0.054731472179551884 -0.06589710306756597 0.0020751803180904587 0.05574832491850377 0.06034468137103001 0.04648127523416285
0.04358998625961216 0.04499374730315052 0.08116173051302153 -0.028881138236949787 -0.05580524951156458 -0.006082778588527568 0.020582014695799136 -0.010964271588276972
0.04151818625574441 -0.05215132150501771 -0.07581292578271807 -0.024374854452171607 0.01270761305389981 -0.03276713528050123 0.11762588260165381 -0.0838591919763837
0.0041575592064582905 0.05293570577031856 -0.06016054713908946 0.020747767470339844 0.05028632253466184 -0.024451477137561267 -0.0016542454836416059 -0.024701061283893162
0.040958054904294314 0.01077486522404565 -0.036074072941281364 0.020148266553138793 -0.08917983706419529 -0.01700578831783887 0.04371363328480895 -0.04891776039171429
-0.048550388281870575 -0.05544078025199975 -0.060740377681211405 0.03446451765011713 -0.03009569288019334 0.04272451476253961 0.06299094458758131 0.1390738689071266
-0.14346561166570068 -0.07994535120758184 -0.04922721116303188 -0.03912490147585918 0.04314754098454569 -0.08558554365701918 -0.09404334753440798 0.09420399784353721
-0.1115116431345894 0.12181464985390136 -0.06747452332280272 -0.0050794083529029956 0.05494920049585337 0.0069235780649443595 -0.034576574329271546 0.10845251187335302
0.060400258521074376 -0.04681114033667793 -0.006618231907847714 0.04133547513465523 -0.003444429431142315 0.013100747093167848 -0.06408651165216542 0.012978672788367254
0.054530845254785555 -0.018679150665956497 -0.043924677032806766 -0.06455781498939564 0.02212936764772305 -0.002288465289259918 0.03813520090925915 -0.045114421300355576
-0.0319076993130479 0.04789684111814214 -0.03855016128091543 -0.04159791442329713 0.04835016286657599 0.01774913699114611 0.008491562730276719 0.010287255857795207
0.007715006660104963 0.04254561790265292 0.06363563342104407 0.03408811054382542 0.04321941340313477 -0.07337126646364961 0.04726960185950537 -0.03535351607351122
-0.018539675269118094 0.08288651676453025 0.04879839688434209 0.06586291548272312 -0.04455349569227279 0.042396381939285105 0.0023990804554706296 0.06798742187240969
-0.02048612077109376 -0.004216181700184337 0.08963158479597283 0.021626804921268703 -0.060771126398052155 0.022966465928454215 0.02529069284911146 8.805107166114483e-05
-0.02828309073248525 0.010347741374610272 -0.0046922331009442275 0.06867563722052464 -0.03297319280522949 -0.027565101560063424 -0.09563967244929238 -0.06742237025480392
0.03841235091495665 0.037835668063852725 0.06520079250669653 -0.0563358349191302 0.045688291137188614 0.023721777807879648 -0.03207099426529031 -0.048670328607342266
00000000: 1f82 0ba7 2efa a33f 3692 eb71 c25f a63f
00000010: 892e d6f9 9add b2bf 9910 59b3 0ec0 a43f
00000020: d34a 9f84 e93b 72bf 0e2d 94fd e063 973f
00000030: a506 f0d2 3e7f 94bf 0697 b76d c82f a9bf
00000040: b42e b906 b9c2 9abf 7e7c d96a 39db 833f
00000050: bdb0 1e8e 161b 933f b24b e2fb ffb1 b6bf
00000060: 1bd4 7b9a fa02 adbf 4c44 d99c 0a85 b4bf
00000070: 9b36 888a e137 a7bf fb6c 96cd 9b8f a9bf
00000080: 0172 47b3 c1ef afbf c7e7 dee9 7f1b b13f
00000090: 6812 08be 9e57 a4bf 9f8f c977 9c4e a13f
000000a0: 0e2a 0de0 ad55 933f 0ff5 eb8e a10d a33f
000000b0: 4e82 2942 8f4b 91bf 3355 cda8 2927 92bf
000000c0: 6c55 0c0f 8cc8 a9bf c778 ad63 100d 843f
000000d0: 07d1 bed2 af48 c43f 1e48 6cdc c619 a7bf
000000e0: 6c6b 5b14 4fe9 9a3f 18fb eaf7 ff52 a13f
000000f0: 2c9d 22f2 afd6 a63f ac63 392e 5a58 b63f
00000100: fa0d c0df c758 6bbf 44a6 4b20 03fb 833f
00000110: 6221 16e5 4992 71bf 8b79 a54e 2714 aa3f
00000120: 73f9 2eb2 e86c 85bf a756 78fd 137c b43f
00000130: 7633 0535 1644 b8bf 81c6 541b 88e8 8bbf
00000140: 3f70 f77f 34bb 903f 7f0d e866 7c08 a0bf
00000150: 0070 c8c5 3e9c a2bf 564d 50df 5d31 9cbf
00000160: 6d94 a1dc ab96 ae3f 8b86 014b 1aaa 8fbf
00000170: c075 66c8 4521 a9bf 50c5 b197 a09c b6bf
00000180: 4a84 3e95 c4c4 a93f b234 17c1 0a11 aabf
00000190: 0000 0080 7a90 a43f 0000 0080 f7be a83f
000001a0: 0000 0040 e5f7 9cbf 0000 0040 ef7b aebf
000001b0: 0000 0040 61c3 99bf ec61 62db 67db 6d3f
000001c0: 0000 0000 6aa0 833f 0000 0040 246f 99bf
000001d0: 0000 0080 cd1d a23f 0000 0000 308b 9e3f
000001e0: f5c2 c432 a4e3 97bf 0000 0020 b671 b1bf
000001f0: 0000 0020 4de7 afbf 0000 0000 0c81 7fbf
00000200: 0000 0020 6eba acbf 0000 0000 f897 82bf
00000210: 0000 0080 c36c 84bf 0000 00c0 8e9a a83f
00000220: 0000 0000 939e 943f 0000 0040 d0be a5bf
00000230: 0000 0000 0b7c a93f 0000 0020 fd69 a0bf
00000240: 0000 0020 0ff0 aabf 0000 0000 4cf5 64bf
00000250: 0000 00c0 6909 a5bf 0000 0020 0f23 b03f
00000260: 0000 0000 b108 983f 0000 0080 07fe a43f
00000270: 0000 0000 dd84 913f 0000 0080 a474 a13f
00000280: 0000 0000 b96e 9f3f 0000 00a0 3d66 b03f
00000290: 0000 00a0 148a b13f 0000 0000 3c68 823f
000002a0: 0000 0000 0c8b 6b3f 0000 00c0 0355 a1bf
000002b0: 0000 0000 c439 a03f 0000 0000 2766 9c3f
000002c0: 0000 0080 4378 9e3f 0000 0000 c591 943f
000002d0: 0000 0040 0ca3 ac3f 0000 0080 754d 93bf
000002e0: 0000 00c0 b734 ae3f 0000 00a0 2d52 b13f
000002f0: 0000 00c0 e23d b1bf 0000 00c0 537b ab3f
00000300: 0000 0080 960f a03f 0000 0040 5011 a53f
00000310: 0000 0000 c2e0 78bf 0000 0060 eb84 b03f
00000320: ab3e 0e23 1837 a3bf 0597 6b62 27a0 b73f
00000330: 6d26 0cd0 9697 97bf 67fe 209c 4c92 99bf
00000340: 2787 e873 3407 ac3f 7063 089f 009a abbf
00000350: 326c 44ce f8a8 a53f e29c f91e 0833 933f
00000360: e481 fe5c 3846 9abf 7f8e 5c8f cb97 a4bf
00000370: 1c2d 9247 7600 a3bf f34a 0b93 509c b33f
00000380: 2abb becd 9d0d a2bf ae42 3928 3d70 a1bf
00000390: 5eb0 8efa 8d78 95bf 2479 6e8e f3a3 833f
000003a0: 7f04 0a46 0994 963f 567a 1370 d96e a0bf
000003b0: 1c95 983e 6dff a13f bf27 379d 3dfa a43f
000003c0: adf4 eaf2 93da 803f 481b 1b20 ac92 a03f
000003d0: a2e6 5d38 4aa4 a2bf 50b9 db18 434c 82bf
000003e0: 80dc 64da 48b6 75bf 0c60 4652 7485 adbf
000003f0: 427f 2298 59b6 963f d38a 13b1 4f3b adbf
00000400: 4860 083f 9822 b6bf 0739 5379 fae2 a83f
00000410: 916e 2576 c305 ac3f d48a 93ee a1de b0bf
00000420: 8e1d 2ff3 f7ff 603f dddb a960 0b8b ac3f
00000430: 42c5 f381 7fe5 ae3f 29a3 03ca 64cc a73f
00000440: 4c14 d63a 6d51 a63f de0e 62a2 6b09 a73f
00000450: 467d 3de2 03c7 b43f b6ba cb60 0493 9dbf
00000460: f9cf 3173 8192 acbf fd5d b471 41ea 78bf
00000470: c459 04a0 7313 953f 8b3c 2b9f 6f74 86bf
00000480: acb8 5028 df41 a53f 964d 9df8 93b3 aabf
00000490: 43d1 d9d4 7968 b3bf 880a deca b8f5 98bf
000004a0: d153 d0f3 7206 8a3f ffa3 d39c dac6 a0bf
000004b0: ddee efd6 ba1c be3f 08ef 01c7 cb77 b5bf
000004c0: 55b0 2a4d 8407 713f 1cfd 258a 631a ab3f
000004d0: 0e97 f1fc 5ccd aebf 0e20 001b e73e 953f
000004e0: f4e8 71fd 20bf a93f c830 94da ce09 99bf
000004f0: a66e 1d90 681a 5bbf 4231 9029 3c4b 99bf
00000500: 06b8 a444 74f8 a43f a775 0cee 2111 863f
00000510: 5b5b 0807 4d78 a2bf 53d3 aa47 bfa1 943f
00000520: 7740 a763 7dd4 b6bf 2bd8 ab22 f769 91bf
00000530: 83f7 b122 a261 a63f 76e6 26aa bf0b a9bf
00000540: a7e9 c1b3 98db a8bf 7418 18e4 bb62 acbf
00000550: dcfe 5fdf 5c19 afbf 6cfd 5b50 55a5 a13f
00000560: e7fd aec2 67d1 9ebf d5ff 48d3 fcdf a53f
00000570: aca3 f2ae 2c20 b03f 2597 572b 2ccd c13f
00000580: 8f37 1ac7 145d c2bf 505f e76c 4c77 b4bf
00000590: e379 091c 4f34 a9bf 5998 98d8 2d08 a4bf
000005a0: 26e6 dc3a 6f17 a63f 4e6c 0427 efe8 b5bf
000005b0: 9d0f 118e 3913 b8bf 53f4 e3d1 c01d b83f
000005c0: 89e3 62ec 068c bcbf 9ad3 4bb1 3e2f bf3f
000005d0: 8310 fca6 0246 b1bf 84d4 234c 25ce 74bf
000005e0: fd5e 2436 4d22 ac3f f589 c3d5 e55b 7c3f
000005f0: f363 e74f 05b4 a1bf 2f44 aa37 8bc3 bb3f
00000600: 0632 095e c8ec ae3f 5743 ab39 a1f7 a7bf
00000610: 7ef2 9f19 b81b 7bbf f665 bc63 ec29 a53f
00000620: 0009 53f8 7d37 6cbf eaec 8b82 90d4 8a3f
00000630: 7228 a93f f967 b0bf 2e47 5ff9 8f94 8a3f
00000640: 4d2e fc89 77eb ab3f c2cb e894 a020 93bf
00000650: bec0 af96 4b7d a6bf faa6 1468 dc86 b0bf
00000660: 8f01 50b9 14a9 963f 90b2 6972 42bf 62bf
00000670: d09b 7601 7586 a33f 9e40 20c8 3c19 a7bf
00000680: 8b8d 14ba 3456 a0bf 1946 5e4c ef85 a83f
00000690: 6803 eac3 d8bc a3bf d84a 0f64 524c a5bf
000006a0: cd53 8940 5ac1 a83f 6004 a36b d42c 923f
000006b0: b66d bf41 0664 813f b96b cc1b 7c11 853f
000006c0: 9b79 b254 c599 7f3f 66c3 f50a 8ac8 a53f
000006d0: 3954 67c4 6c4a b03f 0eb3 ef2f ff73 a13f
000006e0: 25cf 3cde da20 a63f 1c6f ed95 75c8 b2bf
000006f0: 83bc 29a4 b833 a83f bf2e ab26 db19 a2bf
00000700: 9058 d68b 10fc 92bf 8d73 c8fe 0c38 b53f
00000710: 1453 6e7d 1afc a83f 657b 045c 64dc b03f
00000720: 9871 d73d b7cf a6bf b4c0 cb83 fab4 a53f
00000730: bc52 1883 3ca7 633f 103a 7ba9 9f67 b13f
00000740: 355d ef4a 50fa 94bf 7cb4 42a8 fc44 71bf
00000750: a429 6375 18f2 b63f 0950 6a4f 5625 963f
00000760: 2068 d7a0 641d afbf e606 4570 8584 973f
00000770: 0370 b8aa cde5 993f 1aad 84e4 0115 173f
00000780: a03e e716 3ef6 9cbf 8bd2 5456 3231 853f
00000790: ee93 6bbb 2938 73bf a2e4 e4ff b994 b13f
000007a0: e27f 7cc1 dce1 a0bf e176 d8a6 063a 9cbf
000007b0: 57af 5e71 d77b b8bf 2960 43ab 9742 b1bf
000007c0: f069 e29d c8aa a33f 1dc2 e959 325f a33f
000007d0: b852 7dc7 ffb0 b03f 111b 24f1 0cd8 acbf
000007e0: ac1b 7da8 7464 a73f 1f21 8d8f 854a 983f
000007f0: 580c 0aff 9b6b a0bf 47e7 4e3b 51eb a8bf

conv3.bias f8 [16]
0.05139256590955717 -0.05945059268391699 0.0014379045394303863 -0.06691143459229346 0.051518170117145705 0.03242515653136981 -0.009382421716684526 -0.001233284874924965
0.00048176165941529606 -0.08250582318718967 0.007934828200098675 -0.08598416565221578 -0.021946184175950303 -0.03328562823877873 -0.06452373920531693 -0.04875304651300956
00000000: ea9a ad5b 2050 aa3f 7648 9cde 4e70 aebf
00000010: 2114 2f3e 028f 573f 6266 4d97 1b21 b1bf
00000020: 6716 9bef 9660 aa3f 6365 bdb5 079a a03f
00000030: a48a 7153 1737 83bf f7c6 158d c534 54bf
00000040: e801 5892 9e92 3f3f b78b 5104 1a1f b5bf
00000050: a64e f39c 2240 803f a03a 73eb 0e03 b6bf
00000060: 8415 3b7d 0f79 96bf 98bb 6c59 d00a a1bf
00000070: 06d5 b3b5 a084 b0bf ca1d b5c8 28f6 a8bf

conv4.weight f8 [32, 16, 5, 5]
0.023129927642003844 -0.004504464457553003 0.025607453130679227 -0.05267563931601347 0.029214709300698583 -0.05716236680065868 -0.014214594006758789 -0.0001243342771101842
-0.0016164200032175418 -0.014336462216182717 -0.04949894367033423 0.03578384163076686 -0.026539165280295696 0.013323279764635992 -0.043909881126636616 -0.02653044666784371
-0.04170905645665789 0.009858793396373123 0.009310595937473059 0.023204509419922387 0.0016278215134989866 -0.031655532227413366 -0.04290260442536023 0.013299158924286158
0.02267616871097112 -0.01259354502406069 0.006965385795589743 0.02214638517209749 -0.054211816636750614 -0.017605566338051652 -0.04455797011888988 0.020612070819138805
-0.013701079591822402 -0.03465350905069316 -0.04316645403774024 -0.05769848524586578 -0.004466189906009727 -0.06333966358759321 0.014877459998436648 -0.04056007100975432
0.01636602746196465 -0.006938494705948624 -0.01835581377948309 -0.002301224277380342 -0.05893132228512381 -0.004459039724863686 -0.0004175764295564366 -0.028248235923486145
-0.0484976229350294 0.018805804306303856 0.02700025324351593 -0.05501447200234026 0.03280497081821139 0.02552428844411551 -0.052200762747528655 -0.01977644074401398
-0.007176984018489952 -0.05915225374174162 0.021495433615994892 -0.04894022227136913 0.022080773646972317 -0.013855738865888824 0.03789435244939155 -0.0013059334262397573
-0.055548287863044755 -0.034837307801955604 0.031836553543134506 0.007092865274603753 -0.02080324058184394 -0.046948884499933737 -0.007866230775164811 -0.04534263990043753
-0.027794443878930042 0.003749672804062228 -0.007428980814961262 0.03133184687442563 0.02992400899529457 -0.023225898121764354 0.032723960587825 0.019608344874039254
-0.005010980883525775 0.04565590247511864 0.025188901003656707 -0.012292100599027469 0.0364765383307831 0.012475047125099682 0.02466365497172661 0.037683125230110685
-0.009614266214901806 -0.05873354250262502 -0.03533592726053969 0.02555784663873068 -0.035967193986593454 -0.0011524336473995847 0.002140482242734107 -0.036469823887961994
-0.034220691573709355 0.02123606490551575 0.007756398024125968 0.021621600767327463 -0.04627693180436627 -0.04638360314062614 -0.00999125811771283 -0.029915652180507374
0.005606259359705251 -0.007835404844376212 -0.04950562135723068 -0.04259979019950391 0.0052687835270961506 -0.050009686775872406 -0.04457877617907539 -0.009674859257817905
0.0030884754518835634 0.003316254896161973 -0.06468897560127425 0.03256851680715941 0.0050378373731683615 -0.017861036464203346 -0.017908587797275267 0.030725819449358618
0.0037076717544386444 -0.04244611304255529 0.029478555019360055 -0.04645675533094731 0.04360539586951616 -0.029708578350517736 -0.03574933118064512 0.03472896211413469
-0.03865845853384074 -0.0531554121567267 -0.03881603017304239 -0.037431154679432484 -0.019448729478021835 0.03865298396611027 0.0252985312228441 -0.021343306631183574
0.03204680420957177 -0.007837342778494278 -0.02017864125854148 -0.054179550101344565 0.01704443466100833 0.029596125879016073 -0.038487732919862565 -0.04455383987293624
-0.0046277393729239995 -0.009477767868824451 -0.055740344367252705 -0.02769291583817447 0.02187041966873646 -0.025708785418572237 -0.013556184005545804 0.00516926320547985
-0.06264839550977522 0.00013395411125930227 -0.025930383966411643 -0.03792719099602331 -0.020445637120590013 0.02642716058929309 -0.03727725110955767 -0.03306262758310872
-0.024196265531665016 0.0022418719646475813 -0.056084174135622444 0.01977841795228607 0.013343608280663883 -0.0568446873971791 -0.051187675124688733 -0.00490476193929257
-0.0051451814061815 -0.010333304837679044 0.005025510158414801 -0.06468283622132166 0.008552332159662593 0.011681002514628884 0.018971516963089522 0.029979876473657956
-0.05811539079564378 -0.027288162173618492 0.011206676967991906 -0.028773175623172657 0.02665593928986089 -0.033165322609878964 -0.02422343893880503 -0.05226307344150464
0.023656165212726808 -0.026815121035977607 0.03761369745347934 -0.0381155991563904 -0.003338856890000041 -0.053923210944707346 -0.03257422643091812 -0.05881034216448782
-0.036707817394996914 0.01531716410042729 -0.04625683091100916 -0.04272212023732831 -0.009454291700453357 -0.024715766784456857 0.03336625979525255 -0.04401533389120409
-0.017851363867521286 0.044276464730501175 -0.04562794044613838 -0.04470334202051163 -0.001806311309337616 0.0037505924701690674 0.019524160772562027 -0.028456974774599075
-0.01894952729344368 0.03535186126828194 0.012663867324590683 -0.03696385771036148 0.014675859361886978 -0.03152941167354584 -0.01172715425491333 0.01759929582476616
-0.04822663217782974 0.02673596516251564 0.014254365116357803 0.019873712211847305 -0.011713694781064987 0.031215127557516098 -0.035581618547439575 0.021038372069597244
-0.0419546440243721 0.03563948946279915 -0.014664175719076014 -0.05964055939813253 -0.04974793296421177 0.030476073869490968 -0.045351724287113974 -0.013785937785342055
0.017406873140681806 0.01822804606000174 -0.04698845722991286 -0.037478709868017004 0.0375105030111534 0.017441486109477912 0.029836797894947458 -0.05704749565837301
-0.022258058530989132 -0.046529141304521224 0.013627519120841737 0.0024502506481054818 -0.0019272879662768233 -0.005605561183737149 -0.0498940061148857 -0.02410621809169448
-0.031607301810840066 -0.02648118038970552 0.03724666312336922 -0.0004029273986816406 -0.0301444660872221 -0.0444810576736927 0.018317919224500656 -0.025340354070067406
00000000: c300 202b 5faf 973f 59bb 7ff8 4573 72bf
00000010: 9aa4 eb16 d738 9a3f 9dfb 5028 4df8 aabf
00000020: e0da 08f4 75ea 9d3f c10a f1bf 6244 adbf
00000030: e25e 1483 8a1c 8dbf c7d9 d34e f74b 20bf
00000040: f312 3ac3 c17b 5abf d7e9 de62 6f5c 8dbf
00000050: cd52 80f0 ec57 a9bf cf0b 0f7b 4252 a23f
00000060: ed9d c43b 152d 9bbf c3a3 ea56 3c49 8b3f
00000070: 6eff d11e 5b7b a6bf 708a 2523 cc2a 9bbf
00000080: 6f52 dbb2 e35a a5bf 5a3a b9d9 d830 843f
00000090: 7634 7608 6f11 833f 682b 5044 ecc2 973f
000000a0: da4e 820a 94ab 5a3f 32f5 4e67 2735 a0bf
000000b0: 841d d785 54f7 a5bf 1326 27e5 963c 8b3f
000000c0: 027e 0cec 6b38 973f a500 2700 a5ca 89bf
000000d0: b625 2383 bc87 7c3f 6fb5 27c0 8aad 963f
000000e0: 77ef 05b7 a6c1 abbf fe13 998e 3107 92bf
000000f0: 45a1 df60 4dd0 a6bf f3bd 48a8 541b 953f
00000100: 7058 22c6 4f0f 8cbf baf4 20d0 1abe a1bf
00000110: 13b5 c0d8 e919 a6bf 66c8 51e6 a78a adbf
00000120: 4737 58b9 234b 72bf 96fa a537 0737 b0bf
00000130: 606d 20e1 1278 8e3f 4d4a 0525 4ac4 a4bf
00000140: d3b9 db82 41c2 903f 623e 87fd 896b 7cbf
00000150: 9154 7fcf ddcb 92bf 1834 6360 04da 62bf
00000160: c66a d90b 3f2c aebf 563e a35c a443 72bf
00000170: 1f51 c81b c55d 3bbf 8421 d805 1bed 9cbf
00000180: 271f e130 aed4 a8bf 21d8 e129 d441 933f
00000190: d891 a852 f4a5 9b3f 860f 1d5c db2a acbf
000001a0: 9af3 9e29 d0cb a03f eb0d 7c00 0a23 9a3f
000001b0: 375e a7f1 0eba aabf 0444 e878 4640 94bf
000001c0: 5a13 4bfa 9c65 7dbf 1367 9c46 3449 aebf
000001d0: 757e 9321 e602 963f e89f 3a5c b10e a9bf
000001e0: 338b bca2 579c 963f e7c7 53ca 6560 8cbf
000001f0: c14b f278 e366 a33f 2f20 d056 7b65 55bf
00000200: adee 703f d370 acbf d152 6113 32d6 a1bf
00000210: adfa 9178 e14c a03f 98ce 3a86 680d 7d3f
00000220: caa2 ccd7 714d 95bf 4194 0527 af09 a8bf
00000230: 4981 609f 2b1c 80bf a12e f986 2637 a7bf
00000240: e0cd e18d 2576 9cbf de7f 0d42 a2b7 6e3f
00000250: 1a32 49da d96d 7ebf 9741 4c53 ba0a a03f
00000260: 0000 0040 66a4 9e3f c3ae 69a3 87c8 97bf
00000270: ef64 0ae9 31c1 a03f d7ca d9bf 3514 943f
00000280: 5cff 3ff0 6486 74bf 0000 00e0 3560 a73f
00000290: 2aad 2188 1ecb 993f 6162 93d0 992c 89bf
000002a0: 0c6d 6786 0dad a23f 27ce 587b 848c 893f
000002b0: 9c79 03de 6d41 993f 47e4 f2dc 334b a33f
000002c0: 438c bef7 a4b0 83bf 6739 74a8 5212 aebf
000002d0: b06b eaf7 8c17 a2bf f2cc e00d d62b 9a3f
000002e0: 1478 cdc3 4a6a a2bf f797 e334 a8e1 52bf
000002f0: fae4 5da7 ea88 613f a883 c739 2cac a2bf
00000300: c4a8 4fde 5f85 a1bf 1a48 0f31 e8be 953f
00000310: f6f6 923d 2cc5 7f3f 663a bb10 f923 963f
00000320: 3965 5129 9cb1 a7bf 1b88 1e75 97bf a7bf
00000330: f94a e4f6 4b76 84bf 98e1 036f 35a2 9ebf
00000340: ed2e a5c9 96f6 763f d8ca 753c 020c 80bf
00000350: 1f1a 6501 cd58 a9bf 6458 72c3 a3cf a5bf
00000360: 086e 044f b894 753f c603 5fa2 de9a a9bf
00000370: 95d5 9183 07d3 a6bf 5b89 d8a0 69d0 83bf
00000380: 7b4b eea1 004d 693f 4af9 5fca b02a 6b3f
00000390: dd84 9eea 748f b0bf 9bc7 2115 d2ac a03f
000003a0: 314a 2a2c 8ea2 743f 4217 f2dd 294a 92bf
000003b0: 2d9b a0fb a056 92bf 2710 b6d6 9676 9f3f
000003c0: fc6b bf1d 8d5f 6e3f 3f5e b836 7fbb a5bf
000003d0: a748 f756 a02f 9e3f 133e a609 2ec9 a7bf
000003e0: fe9d 604a 7253 a63f b75a b4f1 ec6b 9ebf
000003f0: 3aab 8c80 bc4d a2bf a22a 0299 fec7 a13f
00000400: 5eb5 3b9e 0acb a3bf f017 a3a9 2f37 abbf
00000410: 74ba 4ed8 b1df a3bf 713c 6622 2d2a a3bf
00000420: 2e38 3a24 5eea 93bf 7ff4 0dec 52ca a33f
00000430: 63af f4b0 dbe7 993f 25b3 e00f 05db 95bf
00000440: 55f8 0a50 7068 a03f d790 5e57 060d 80bf
00000450: 95f2 21b1 b5a9 94bf 9033 9807 6cbd abbf
00000460: 7896 caa5 1874 913f c566 f462 724e 9e3f
00000470: 8740 6004 aab4 a3bf 0dba 54ca c2cf a6bf
00000480: 4c8c 2d54 89f4 72bf ee12 4978 1469 83bf
00000490: cd10 4098 ff89 acbf 4361 6c1f 885b 9cbf
000004a0: 7977 e804 3365 963f 7edf 5e62 6753 9abf
000004b0: fbf2 b237 58c3 8bbf 115b 9786 5d2c 753f
000004c0: f281 dca9 b909 b0bf 7804 d60d c18e 213f
000004d0: 5710 6f9c 7e8d 9abf 8704 ea59 316b a3bf
000004e0: 6482 1d7b b3ef 94bf 2820 d4b9 b80f 9b3f
000004f0: 0bf8 ccfc 0016 a3bf 3de9 60b0 95ed a0bf
00000500: 0949 93e4 e7c6 98bf 6bae a3d8 8b5d 623f
00000510: 68a9 789b 10b7 acbf 5e35 1629 cb40 943f
00000520: dd9f 68c9 e453 8b3f 04fb a432 bf1a adbf
00000530: c6d4 3c5d 4535 aabf 029b fb01 0417 74bf
00000540: 9cd0 f11d 1d13 75bf 8b0e b3b2 a029 85bf
00000550: 8aef 6a1c a195 743f b1df 2eea 0d8f b0bf
00000560: 9536 7197 e283 813f 3c52 479e 35ec 873f
00000570: c1dd a5f3 446d 933f de4c f873 0bb3 9e3f
00000580: 031d b9ed 4cc1 adbf 7a1f 6a90 6df1 9bbf
00000590: ef4a 98b8 86f3 863f 8ee0 3621 b776 9dbf
000005a0: 04f9 f9cd b14b 9b3f 2602 f18f 0bfb a0bf
000005b0: 93c0 2778 07ce 98bf a57d 70be 39c2 aabf
000005c0: d6ee bf5f 5239 983f e01c 8d4f 6c75 9bbf
000005d0: 847f e340 1a42 a33f 6033 b047 e383 a3bf
000005e0: 321f c124 175a 6bbf 9572 01b7 d29b abbf
000005f0: a034 6daa 91ad a0bf d7ad 86a0 631c aebf
00000600: 8a27 70f6 5dcb a2bf 8ac8 07f7 9a5e 8f3f
00000610: 1d72 f5af f9ae a7bf aa5f 787a acdf a5bf
00000620: db46 488d c55c 83bf ffa3 2308 174f 99bf
00000630: d18c 38e5 6115 a13f d7a4 2b87 2d89 a6bf
00000640: 0000 00c0 a047 92bf 0000 00a0 67ab a63f
00000650: 0000 00a0 8b5c a7bf 0000 0040 5be3 a6bf
00000660: 0000 0000 3898 5dbf 0000 0000 90b9 6e3f
00000670: 0000 0040 24fe 933f 0000 0040 d323 9dbf
00000680: 0000 0040 8167 93bf 0000 00a0 a319 a23f
00000690: 0000 0080 83ef 893f 0000 0040 edec a2bf
000006a0: 0000 0080 600e 8e3f 0000 0080 9f24 a0bf
000006b0: 0000 0000 6804 88bf 0000 00c0 8c05 923f
000006c0: 0000 0040 29b1 a8bf 0000 0040 ac60 9b3f
000006d0: 0000 0080 6431 8d3f 0000 0040 c659 943f
000006e0: 0000 0080 59fd 87bf 0000 00c0 dbf6 9f3f
000006f0: 0000 0000 c137 a2bf 0000 0040 158b 953f
00000700: 0000 0040 147b a5bf 1fb2 60d3 563f a23f
00000710: 1bff 1659 4008 8ebf b39f 4218 3589 aebf
00000720: 91f1 3fa2 8f78 a9bf cfdc 51b2 1e35 9f3f
00000730: ffbe 4259 5738 a7bf a93d 763f cd3b 8cbf
00000740: 059b 757b 1bd3 913f 056f ca76 5faa 923f
00000750: c116 2ffe de0e a8bf 0adb 5bd2 6830 a3bf
00000760: cafa 609f 9334 a33f 1a42 bc51 2edc 913f
00000770: 8b63 b49c 898d 9e3f 96c3 5750 5435 adbf
00000780: 562a da05 d1ca 96bf de81 6de8 aad2 a7bf
00000790: 94d7 98a7 bee8 8b3f 54d8 d14c 8c12 643f
000007a0: c59f 3fb2 a193 5fbf 24a9 5b5f dbf5 76bf
000007b0: 9049 0f09 b58b a9bf cb16 56e9 4caf 98bf
000007c0: c449 2f0f d52e a0bf 2bdc eeee e11d 9bbf
000007d0: 0000 00a0 fe11 a33f 0000 0000 0068 3abf
000007e0: 0000 00e0 30de 9ebf 0000 00a0 38c6 a6bf
000007f0: 0000 00c0 eec1 923f 0000 0060 d2f2 99bf

conv4.bias f8 [32]
-0.00019624784055413043 0.032966241867974325 0.00647331695335311 -0.042196008211371885 -0.0028731175579907917 -0.029240731135149432 -0.04527622921250346 -0.00843323762077242
-0.054626944672574326 0.008397862572158342 -0.04532663790799877 0.016490732087738963 0.008288005851492135 0.012701226061272285 0.03901398600554662 0.028291924031692787
0.013225477763741968 -0.019337974829273356 -0.035299940964515004 0.016668300102257796 -0.056216372343130455 -0.05004393331861796 -0.058235694861221717 -0.012703247805665315
-0.04519624111935546 -0.008561650060870389 -0.06305733641535322 0.0022852713202819066 -0.05146847326915348 -0.06361704237731214 0.012157291083834017 -0.04231123940236593
00000000: 15fb 3a1d fcb8 29bf dad3 6385 f3e0 a03f
00000010: 2edc c7c9 c383 7a3f 1a45 9416 b79a a5bf
00000020: eb4d 5f3e 5d89 67bf f612 bf3f 48f1 9dbf
00000030: 78ff 8127 722e a7bf c2b2 3efe 7145 81bf
00000040: 4ebe b219 10f8 abbf 796c d408 e632 813f
00000050: 95ac e796 0d35 a7bf f807 044c f2e2 903f
00000060: 3c54 a650 4df9 803f 260b 6bb4 1903 8a3f
00000070: 30fa f523 a4f9 a33f 8101 d4e1 8ef8 9c3f
00000080: 8e04 c193 f515 8b3f e1b3 d985 55cd 93bf
00000090: c994 fc77 d512 a2bf f4c4 46af 7e11 913f
000000a0: 6c50 6d71 64c8 acbf 39ef eec1 5b9f a9bf
000000b0: 810e c7a9 11d1 adbf b1ca 060f 2904 8abf
000000c0: 8bff 0433 f623 a7bf 3c02 1738 c588 81bf
000000d0: 8c43 ad8d 8624 b0bf 27bc a8b2 8fb8 623f
000000e0: fe9f ee62 135a aabf c092 7adc 3449 b0bf
000000f0: c476 e7fc ebe5 883f e207 f99a d1a9 a5bf

fc1.weight f8 [128, 640]
-0.016166591276052765 -0.030034117324530887 0.02398263400734895 0.02010645981401506 0.00045588154964813337 0.008507317843240146 0.03039384500660641 0.034466714275207484
0.030467070355656555 0.03520280237070673 -0.03814386207826163 -0.001461391533155627 -0.02712489566279213 0.048765899968112286 -0.011729742979533985 0.01650669930982329
-0.03541692981995654 0.016481859539000533 0.0008235206456006303 0.005925646001129022 -0.05303390323580698 -0.07059661598836085 0.022685310096204683 -0.004388906615908866
-0.02263248377424667 -0.00496992605349278 0.014355562728388496 -0.025441698234623094 0.009755002489410544 0.048489588151991475 -0.0064297042808792075 -0.013522011512342424
-0.002279513372121295 0.042793740926032706 -0.04142847376062357 -0.025811235503090016 0.07842410848291344 -0.003109448841549971 0.01726784923001453 -0.0058274230872181546
-0.04295557467231623 0.035105158075189456 0.06853036140622344 -0.03810500109496006 -0.010129438314302568 -0.04905254564491948 -0.06045643693730446 0.0010193275097801766
-0.01901041622866819 0.009687882459298513 -0.042000096676455725 -0.006127891381708821 0.003007261950734657 0.022161995750948234 -0.02824288061446499 -0.010407783013882597
-0.011747243553143572 0.033427837480975796 -0.032146211261171245 -0.0263627362182382 -0.0036778648222925694 0.010585743032220667 -0.0498780693513302 -0.0034540445556572397
0.024090957876535285 -0.013038944667271426 -0.07665419550655274 -0.026288222099372975 -0.015086864544437546 0.02649000804624174 -0.05463800282482264 0.0011451998796767613
-0.014038594129378265 0.03172627966994175 -0.009003089460811142 -0.03251249498121398 -0.03710934476888653 0.0009185737685465837 0.00510595503565068 0.033632179666010745
0.00036383644490122874 0.0054729884486830966 0.03889562505686064 -0.008834754578576916 -0.006041917104066385 0.03551615539354682 0.03418091612559247 0.036605989797624916
-0.010850503521790764 0.04880201930319436 -0.029004157790673602 -0.013562448039285063 0.0010688167281453552 -0.007035704983922558 -0.06602654639196155 0.0744538571228216
0.015066329418722834 -0.0033944365652738328 0.007721243036027898 -0.007213782542820332 0.010993334733953924 -0.011159001974539125 0.02135744479417642 0.046625560085101346
0.009562367936806765 0.021165065380673715 0.020953142721026743 0.0267965550499675 -0.00848745270550177 0.02421063325717682 0.023461144287419064 0.03949308338113982
-0.028628055555913048 0.01161631576797283 0.04357913174073271 -0.003315701211694335 -0.08373992286916558 0.067133394037682 -0.03956987266284692 -0.0300006387315893
0.029317142442693934 -0.03537635871432809 0.028861869358442732 0.03824914632983036 -4.114784666665683e-05 -0.015403989752881422 -0.020621915684687808 0.038362337784150734
-0.0013405648014192383 -0.03879887893858356 0.017522082809114246 -0.030508379088987632 -0.05465626047910493 -0.05562366228116957 0.021114708171089246 -0.020060427668088354
-0.019628054434633713 0.001821792090161804 0.015325165502117434 -0.007771935416765846 -0.0003599089884392369 0.01927849994862937 -0.07908461883100971 -0.02497606195298908
-0.01676133798156173 0.025454079847530512 -0.003602729902406012 0.01013910386848849 0.007182777814010469 -0.002745837316301355 -0.026894276928444226 0.007781000985123244
-0.006753606929481103 -0.016242363295746926 -0.0004101850817668835 0.003156099465795178 -0.007060498543180911 0.043905147947478844 -0.026728093978158535 -0.009069629462089375
0.03311709161962763 -0.004719309314881683 -0.00937652920650566 0.03307063907073079 0.04557943137995442 0.048849932013214956 -0.03891071450335568 0.018986235594669984
0.006352885918742232 0.01550186398703134 0.016061514696114238 0.032810834691326084 -0.034934857482459315 -0.009092592423289128 0.044203334934183595 0.0399522945472301
-0.04879267685721066 -0.046930033010925305 0.03124603754657428 -0.0456187576491673 0.0035971500789210515 0.023286910409151564 0.012021309414646224 0.005237234335513737
-0.03276013474363356 -0.003809667808549413 -0.022144105168838663 -0.01002725040636122 -0.03634269875285815 0.05410014494643969 0.020644779203696957 0.033660135716429916
-0.07759018322292492 -0.020910073174913356 -0.02206122168711002 0.011973213604729242 -0.03243515958352597 0.013445511521847664 0.0035525021023058998 0.031205325698235236
0.028655376214800767 -0.0137896386395559 -0.004063887792027568 -0.026722191309309053 0.017594203148718693 -0.024513754163526674 0.015970457430074157 0.014062821681473988
0.024407466968808238 0.010192689079824346 -0.047382473593004154 0.024399519515230852 0.013412605137726588 0.007253318613097337 0.015436891277244253 0.03740310685610449
0.040438911596072435 0.006336158508143587 0.016154224300860064 0.02415398949058381 0.07467222544123558 -0.04970265171338864 0.005285028059396325 0.007676234903162449
-0.0014446539482566596 0.046680563876503156 0.04039597384876634 -0.0461068226104799 -0.05425016502076648 -0.0013402380253004851 0.0024672080267020917 -0.026268708459323137
-0.06524261930441012 0.031222874008179097 -0.04926883933114816 0.013142973375857866 -0.04634868301640788 -0.032282770487143245 -0.0009384896163945175 0.010935521578724496
0.03385611617960686 0.008326617962883814 -0.08317086261144062 -0.03284147515446292 0.049432423864279526 0.011506201826332605 0.022640573722966763 0.057916425189010856
0.030461016665311223 -0.04539222769380037 -0.014697818236759306 0.019013425748931428 0.01238357714224701 -0.026428212488409483 -0.03672215248757469 -0.03669056304893338
00000000: 9616 4693 f98d 90bf c43d b17e 43c1 9ebf
00000010: ee1a ef52 e78e 983f 85ae 5bad c996 943f
00000020: af06 ba58 6ce0 3d3f 59a1 4edf 486c 813f
00000030: 4f57 3669 901f 9f3f b9a5 3905 9fa5 a13f
00000040: 6341 217b c232 9f3f 01c9 d109 1a06 a23f
00000050: 55aa 56a0 9787 a3bf 5208 dc35 85f1 57bf
00000060: 8ecd 1def a0c6 9bbf 2ccd 0b13 d8f7 a83f
00000070: 7992 e673 c305 88bf 4069 cdd6 21e7 903f
00000080: 6956 9af6 2a22 a2bf ea01 cade 9ee0 903f
00000090: 4597 c61e 31fc 4a3f 2236 857c 7d45 783f
000000a0: e83b f47f 4227 abbf ffd6 e0ac 9e12 b2bf
000000b0: e4ec d963 d13a 973f 13a3 1626 1afa 71bf
000000c0: 86f1 8c46 f82c 97bf 0109 d05d 585b 74bf
000000d0: 1b0c 7903 7366 8d3f 4b58 7d77 630d 9abf
000000e0: cbb9 5045 6efa 833f 345e 9e96 a0d3 a83f
000000f0: 15ce bf99 0856 7abf 73ee c5a9 6db1 8bbf
00000100: 0e2f 4a6c 7cac 62bf ce69 80ab 0fe9 a53f
00000110: 16a3 d9e7 1c36 a5bf 14a6 6bb1 426e 9abf
00000120: 05ee 2635 9a13 b43f 2448 a8a2 fc78 69bf
00000130: d655 dcbe a9ae 913f e8dd 45f9 7ede 77bf
00000140: 1c06 cce8 45fe a5bf b32b b5a3 4df9 a13f
00000150: 95d5 05ad 348b b13f cfa6 08ab 7f82 a3bf
00000160: bc52 4b32 bebe 84bf 3434 a94e 6a1d a9bf
00000170: 08f2 f466 25f4 aebf fff9 6094 5eb3 503f
00000180: 0621 f16f 7777 93bf f934 a492 3dd7 833f
00000190: 5af5 4e63 0981 a5bf b8fe 3e51 8f19 79bf
000001a0: 253c 5377 afa2 683f 3f8f db5b a2b1 963f
000001b0: 7cf9 55a2 b3eb 9cbf 5211 59fd ac50 85bf
000001c0: edfb 0757 f00e 88bf 837a 8319 741d a13f
000001d0: 0234 1ddc 7775 a0bf 0fc7 8f47 d5fe 9abf
000001e0: bef7 2fa4 0a21 6ebf 699a 0461 faad 853f
000001f0: 4e9c 4d49 9e89 a9bf 12a6 f90c a84b 6cbf
00000200: a80c d6d0 4cab 983f 0ebe 5c87 29b4 8abf
00000210: 0145 cdfe 9b9f b3bf 3e46 bfb8 4ceb 9abf
00000220: 0a53 8aae dce5 8ebf efe3 ea58 3220 9b3f
00000230: 6bb3 8026 83f9 abbf ff43 f501 51c3 523f
00000240: cb08 5735 44c0 8cbf 3a59 364b 6d3e a03f
00000250: 268e 6036 3670 82bf 0db5 4f4d 7aa5 a0bf
00000260: 1514 51fc feff a2bf a755 be25 8e19 4e3f
00000270: e996 495e fbe9 743f f275 84af 3c38 a13f
00000280: ad0f c7a1 29d8 373f 392c 6026 d86a 763f
00000290: 8344 279b 20ea a33f 648a ddaf f417 82bf
000002a0: ccac dfc5 68bf 78bf 4335 ca6b 2c2f a23f
000002b0: 0e40 d039 2980 a13f f879 0932 05be a23f
000002c0: 9277 2bee c938 86bf 3c9f c509 94fc a83f
000002d0: 2dc8 a214 44b3 9dbf f669 42f6 a0c6 8bbf
000002e0: 19ab 2339 f182 513f 60ca f6ac 78d1 7cbf
000002f0: 6dda 6ba1 1de7 b0bf b850 6771 680f b33f
00000300: a650 fe80 18db 8e3f 0a88 2841 a6ce 6bbf
00000310: 47f4 2f65 4fa0 7f3f 7041 a101 338c 7dbf
00000320: 0321 4069 ac83 863f 840c 4be4 87da 86bf
00000330: b71f abdb b9de 953f 6346 722f 4edf a73f
00000340: 43bb 7c4c 6f95 833f 95c2 827e 4bac 953f
00000350: 37e0 f09a bd74 953f a71d 575e 8e70 9b3f
00000360: 3d2f 5f9e de61 81bf 5158 3818 acca 983f
00000370: 7cca c3bd 3206 983f a794 14fb 6f38 a43f
00000380: f75f 7149 ac50 9dbf 3a6e 9682 4bca 873f
00000390: b3a2 3a03 0150 a63f 05a5 8f88 8729 6bbf
000003a0: 83b6 17c6 fa6f b5bf d57f dc73 a72f b13f
000003b0: ecd4 fc99 8042 a4bf 9c5b d8c8 7cb8 9ebf
000003c0: 0aa1 0320 5005 9e3f a08e 759f d91c a2bf
000003d0: a8d6 fb43 f78d 9d3f f34e 2c61 6495 a33f
000003e0: ea86 f13e c592 05bf db7b bb81 208c 8fbf
000003f0: 7352 c955 e91d 95bf 4bb0 5c74 3aa4 a33f
00000400: bda6 bc7e bcf6 55bf bd4a 5358 72dd a3bf
00000410: 79e6 7d12 4ff1 913f a2c2 c3a9 963d 9fbf
00000420: 370f 8fc6 e7fb abbf 3343 c364 b47a acbf
00000430: 93d6 3c14 189f 953f e0e3 1c83 b88a 94bf
00000440: 0d00 866f 6019 94bf df7c a15c 26d9 5d3f
00000450: a15b 19e5 cc62 8f3f 39ee 1007 77d5 7fbf
00000460: d5e3 ba55 4596 37bf 5763 2e3b bebd 933f
00000470: 91ed 7ebb e33e b4bf 0376 1525 5393 99bf
00000480: 163e df59 e229 91bf 51cb fa61 a210 9a3f
00000490: 85d0 6de3 7883 6dbf c20d 357c cfc3 843f
000004a0: 9dc6 e33c b06b 7d3f 9225 282f 707e 66bf
000004b0: 16cf 6d5f 2c8a 9bbf 8112 2e8c f8de 7f3f
000004c0: e549 468e aba9 7bbf 85f1 a88c d6a1 90bf
000004d0: 5e64 f182 c3e1 3abf c5e6 a1ff d1da 693f
000004e0: 7bf7 6125 78eb 7cbf 07f5 1e4d bc7a a63f
000004f0: 9819 1506 9c5e 9bbf 177f 690f 1993 82bf
00000500: b2ce e332 b9f4 a03f 428b acf2 8d54 73bf
00000510: bbdf 5572 0034 83bf eb80 8882 a2ee a03f
00000520: 3a5b 4bee 2f56 a73f 9e31 d1b8 db02 a93f
00000530: 0d06 83ec 1aec a3bf 0c23 d0b3 2071 933f
00000540: ca76 19d4 7b05 7a3f 3a8b cff6 70bf 8f3f
00000550: 754a 6001 6e72 903f 634c e8eb 94cc a03f
00000560: a552 c14c fbe2 a1bf 5b46 c018 239f 82bf
00000570: 4f39 d5cb d1a1 a63f b905 f68c a074 a43f
00000580: dea3 c58e 5afb a8bf 09d9 f699 3607 a8bf
00000590: 1d89 9115 f6fe 9f3f dae8 5f80 575b a7bf
000005a0: 3221 543e c577 6d3f 475c 871a 86d8 973f
000005b0: 16f9 53d6 a09e 883f a28f 1463 a373 753f
000005c0: 6b44 acb6 efc5 a0bf 05d9 aed4 7335 6fbf
000005d0: b854 ffbd f1ac 96bf 8653 83c4 2a89 84bf
000005e0: 450e 2f9d 829b a2bf 74f4 81a2 03b3 ab3f
000005f0: f254 0dae e723 953f 4377 29bc e63b a13f
00000600: 53e0 6e43 f3dc b3bf 66db c541 7369 95bf
00000610: a6af 9f86 3797 96bf fcf6 e186 6985 883f
00000620: c4b6 4d5b 579b a0bf 6d57 1d02 5289 8b3f
00000630: 82e3 250b 231a 6d3f cbfc 56f5 49f4 9f3f
00000640: 87e0 c9be d557 9d3f df2a d8f7 bd3d 8cbf
00000650: ddfa 9492 4ba5 70bf d7f5 00e7 0f5d 9bbf
00000660: 94e0 7dfc 3604 923f abf5 bc31 221a 99bf
00000670: 9612 7541 8f5a 903f fef7 b0f9 f7cc 8c3f
00000680: 9e0d a361 45fe 983f 2094 0c92 e7df 843f
00000690: 3c98 f8fc 8342 a8bf 3493 6c09 30fc 983f
000006a0: 8896 5d63 1178 8b3f a608 b1e3 a7b5 7d3f
000006b0: 0a5a 8079 609d 8f3f 6178 6e01 8026 a33f
000006c0: 88f9 94b5 68b4 a43f db2b 3299 f1f3 793f
000006d0: 33fd 41a4 bb8a 903f 084e b8cb d2bb 983f
000006e0: a48c 300e b81d b33f d457 443f a072 a9bf
000006f0: e8db c6ea c0a5 753f cd12 d99d 1d71 7f3f
00000700: 0820 8e5d 51ab 57bf 08b6 6ace 83e6 a73f
00000710: 8c1b 24f5 c7ae a43f 5b0e 783e 509b a7bf
00000720: fb32 2279 adc6 abbf 238c 339f 5df5 55bf
00000730: 130a 3039 1c36 643f f8bb f62e 2fe6 9abf
00000740: 09c3 3784 bdb3 b0bf d54f 029b e3f8 9f3f
00000750: f63f 47eb c339 a9bf eb72 9206 b4ea 8a3f
00000760: f849 89bb 03bb a7bf 32e0 ee06 5e87 a0bf
00000770: 6eeb e21a 9fc0 4ebf d4d2 5cdc 5c65 863f
00000780: 36a0 85bf 9655 a13f 03ea b1be 8b0d 813f
00000790: 6b70 e586 af4a b5bf 134c 7b0b 99d0 a0bf
000007a0: b6da b7e7 344f a93f 9fb8 5c44 9090 873f
000007b0: d7af cf2e 172f 973f 9012 2dc0 38a7 ad3f
000007c0: 868d 8539 2c31 9f3f 82fa df6a a63d a7bf
000007d0: 3f0a 32c5 e319 8ebf 0b39 1b67 4178 933f
000007e0: b7e4 aa96 8f5c 893f 4f5d 5151 ff0f 9bbf
000007f0: 7d1a f2f7 3ecd a2bf c2e6 bb00 1bc9 a2bf

fc1.bias f8 [128]
-0.03261983031649931 -0.037229467183230884 -0.016793010741378893 0.026826467319855902 0.003450356550202328 -0.014642426704855313 -0.01891620648050189 -0.00027807803014455825
-0.02603927813380071 -0.03892377022818101 -0.016504066068661775 0.03341522441677541 -0.030918646569822128 -0.017570592463152374 0.02100539587215428 -0.038838557928104346
-0.021266052490371244 -0.01953648776465401 0.0298682935500888 0.009598340775998212 -0.011154471004651226 -0.018067013438345172 -0.020969850854650425 0.033160191036921326
-0.03161554780394862 -0.012310605498409725 0.011274918903834572 0.03269508107876502 0.01737597959296364 0.028168503218195095 -0.010107429704162164 -0.016175501070167637
0.02867927028659866 -0.00886386262591483 -0.0203567054390918 -0.03919044508151505 -0.019535154098458733 -0.004998002193442012 -0.0049224868649699926 0.017264001046495482
0.007594604003671089 -0.03069743886687718 -3.0498933803145393e-05 0.0115963070970501 -0.03854831674380558 -0.0040836520072197475 -0.03227968884757473 -0.004415526998675837
0.012158207610768424 0.0024004131478253636 0.01012555882015818 0.013913847513792496 0.031198050865434337 -0.011890200986755263 0.03743618372461449 -0.03627702219684529
-0.02291931956368266 -0.03317865398023493 0.00988543036004614 0.0029193311439101276 -0.009251423183973904 0.02915470681670452 0.03283457076646119 -0.027588669106824785
-0.0297706089707928 -0.03113695606554623 -0.023949444246281777 -0.0330612511247537 -0.034860044653646616 -0.013382235562170948 -0.008161075365565554 -0.008734112638943543
-0.0016525983744342682 -0.02240245227138562 0.03124656156817301 -0.018403980917361548 0.03356843816450401 -0.0019348710761497578 -0.005119785717401577 -0.0169167052814248
-0.02720770988383816 0.014400381717455208 -0.0367061607030892 -0.0028746016724260455 0.00957623868830753 0.03136133778920563 -0.005892656747292706 -0.028896713564276245
0.00940028949963336 -0.0009936093848370974 -0.0024821572093569125 0.009907040769573026 -0.0016375035708677613 0.00876571609728613 0.031719122094653086 -0.02734185762689381
0.00645431124933431 -0.031618382807320336 0.00592694808153317 0.01552235708404265 -0.027168881142990604 -0.010543586700380702 -0.029588012242066888 -0.005793139313318173
0.005422417140860135 0.029339592906050684 -0.012908549993313962 0.018549036237186792 0.0030529201057643124 0.0030336827358582487 0.011673368476732105 0.0013677328839904728
-0.006637789284349724 -0.031369995341055765 0.010081201820462137 -0.03599188109195251 0.02620285376208711 -0.0031867250423555458 -0.0012683569886829007 -0.012655964150940478
0.01629665125103975 -0.014823384584245914 -0.019548088120956774 -0.023047749042469385 -0.008599914564068778 0.003915835196328425 -0.03758300839796226 0.017724864173774516
00000000: 6324 d2e0 8bb3 a0bf 17bc ff9f bd0f a3bf
00000010: ae0d bedf 2f32 91bf 7556 39bf 6578 9b3f
00000020: 1c75 5d11 ec43 6c3f 18c5 a63e d9fc 8dbf
00000030: ebe4 ca20 c55e 93bf 44af 920b 6039 32bf
00000040: 6507 fc5f 0aaa 9abf 5a88 5500 d1ed a3bf
00000050: ce4e 1020 71e6 90bf 68fa 1de0 cc1b a13f
00000060: c076 6a3f 23a9 9fbf f898 0080 06fe 91bf
00000070: f1e2 3d41 7082 953f 4501 40c0 a5e2 a3bf
00000080: 563b d89f c4c6 95bf 0390 1c80 5f01 94bf
00000090: 2199 f03f cb95 9e3f 4b88 d47d 4ba8 833f
000000a0: 226f 5ac1 27d8 86bf 4495 6abf 2880 92bf
000000b0: a2aa 7dde 1e79 95bf abbc 1060 5ffa a03f
000000c0: 23e6 b9bf e92f a0bf 9cb7 1380 4d36 89bf
000000d0: f8fa a7ff 4d17 873f ca5c f2df 68bd a03f
000000e0: 19d9 5940 02cb 913f 03ce 6540 34d8 9c3f
000000f0: 1a3d 3540 34b3 84bf 8202 5f80 4f90 90bf
00000100: defb d03f 195e 9d3f a69e c180 3727 82bf
00000110: 32f8 7560 63d8 94bf 62af e11f c510 a4bf
00000120: fe9a e6ff 0501 94bf 5e6e 75ff c878 74bf
00000130: 05bf 9901 9a29 74bf 3a3c 927f a7ad 913f
00000140: 983f 26fd 841b 7f3f 2a4c 0440 266f 9fbf
00000150: 030b 9fc5 fefa ffbe 56be e3fd cdbf 873f
00000160: 5503 76df 9abc a3bf a2a9 1bfd 04ba 70bf
00000170: a4cc d99f f686 a0bf ddd8 dc00 0416 72bf
00000180: e7a2 8700 67e6 883f 1803 f0fe 07aa 633f
00000190: 36f3 e37f b5bc 843f e522 4400 dd7e 8c3f
000001a0: f7f7 a9c0 61f2 9f3f a73f 0cc3 e359 88bf
000001b0: 688b 91e1 d52a a33f f509 dddf e692 a2bf
000001c0: a3ee e37f 2978 97bf 1573 8ae3 cafc a0bf
000001d0: 6486 d300 d03e 843f 78d9 41f9 47ea 673f
000001e0: d20b 2200 69f2 82bf a277 3541 bbda 9d3f
000001f0: 1984 3d5f b1cf a03f 0146 373e 3440 9cbf
00000200: cd6f a5bf 2f7c 9ebf 6079 febf 5de2 9fbf
00000210: 453d 2eff 3386 98bf 65fa b080 67ed a0bf
00000220: 38f3 72ff 2cd9 a1bf a4f4 b140 2568 8bbf
00000230: c8c3 5cfe c0b6 80bf 0a97 26c1 30e3 81bf
00000240: 08fd 2efe 7f13 5bbf 6657 6c1f abf0 96bf
00000250: 4fe6 3040 19ff 9f3f cc06 a040 7ed8 92bf
00000260: b94d 30e0 e12f a13f 0058 9eff 6fb3 5fbf
00000270: 8812 8003 7cf8 74bf 4f58 c2df 9c52 91bf
00000280: 86be 9980 56dc 9bbf 170a 3684 f27d 8d3f
00000290: 421f 905f 26cb a2bf 16d1 8105 7a8c 67bf
000002a0: 5c38 e1ff b49c 833f 57af 53e0 970e a03f
000002b0: ab41 4200 e622 78bf 9dbc e19e 1997 9dbf
000002c0: cb75 ca7f 7540 833f b820 06f4 7f47 50bf
000002d0: 90fd 3401 7655 64bf b2f8 d780 244a 843f
000002e0: a067 2c12 30d4 5abf b0fe b57f c2f3 813f
000002f0: ddd5 1b20 7d3d a03f 0710 4701 81ff 9bbf
00000300: 33db befb d56f 7a3f 323e 38e0 4830 a0bf
00000310: 10ed cd02 db46 783f 212b 4380 2fca 8f3f
00000320: 7287 e9bf 28d2 9bbf 8643 7c40 e097 85bf
00000330: 87b9 bbe3 514c 9ebf 181d 45fe 8bba 77bf
00000340: 1871 9004 d135 763f faaa 09c0 320b 9e3f
00000350: 1703 7b40 cc6f 8abf 114d 0bc0 84fe 923f
00000360: 1bb0 5e00 7002 693f 08e7 6104 18da 683f
00000370: 9ad8 bbfe 34e8 873f 78e7 6800 b068 563f
00000380: 4ae9 4dfe 3930 7bbf 1e8a 2160 ba0f a0bf
00000390: 0670 fc00 74a5 843f 1144 6c20 876d a2bf
000003a0: c750 e1bf ebd4 9a3f 5409 d3fa 0b1b 6abf
000003b0: 4e94 4ef2 dfc7 54bf f266 05c1 5eeb 89bf
000003c0: 6350 a1c0 11b0 903f bafd 0a00 b95b 8ebf
000003d0: a320 b7fc 6904 94bf 7508 8941 d499 97bf
000003e0: 2097 68fe d49c 81bf f814 ad01 0d0a 703f
000003f0: a2b9 e87f 143e a3bf e442 cf7f 7726 923f
